Found 856 files belonging to 2 classes.
(856, 256, 256, 1)
(856,)
Found 416 files belonging to 2 classes.
x_train shape: (770, 256, 256, 1)
y_train shape: (770,)
x_val shape: (86, 256, 256, 1)
y_val shape: (86,)
x_test shape: (416, 256, 256, 1)
y_test shape: (416,)
Model: "sequential"
_________________________________________________________________
 Layer (type)                Output Shape              Param #   
=================================================================
 conv2d (Conv2D)             (None, 254, 254, 32)      320       
                                                                 
 batch_normalization (Batch  (None, 254, 254, 32)      128       
 Normalization)                                                  
                                                                 
 max_pooling2d (MaxPooling2  (None, 127, 127, 32)      0         
 D)                                                              
                                                                 
 conv2d_1 (Conv2D)           (None, 125, 125, 64)      18496     
                                                                 
 batch_normalization_1 (Bat  (None, 125, 125, 64)      256       
 chNormalization)                                                
                                                                 
 max_pooling2d_1 (MaxPoolin  (None, 62, 62, 64)        0         
 g2D)                                                            
                                                                 
 conv2d_2 (Conv2D)           (None, 60, 60, 128)       73856     
                                                                 
 batch_normalization_2 (Bat  (None, 60, 60, 128)       512       
 chNormalization)                                                
                                                                 
 max_pooling2d_2 (MaxPoolin  (None, 30, 30, 128)       0         
 g2D)                                                            
                                                                 
 conv2d_3 (Conv2D)           (None, 28, 28, 256)       295168    
                                                                 
 batch_normalization_3 (Bat  (None, 28, 28, 256)       1024      
 chNormalization)                                                
                                                                 
 max_pooling2d_3 (MaxPoolin  (None, 14, 14, 256)       0         
 g2D)                                                            
                                                                 
 conv2d_4 (Conv2D)           (None, 12, 12, 512)       1180160   
                                                                 
 batch_normalization_4 (Bat  (None, 12, 12, 512)       2048      
 chNormalization)                                                
                                                                 
 max_pooling2d_4 (MaxPoolin  (None, 6, 6, 512)         0         
 g2D)                                                            
                                                                 
 conv2d_5 (Conv2D)           (None, 4, 4, 1024)        4719616   
                                                                 
 batch_normalization_5 (Bat  (None, 4, 4, 1024)        4096      
 chNormalization)                                                
                                                                 
 max_pooling2d_5 (MaxPoolin  (None, 2, 2, 1024)        0         
 g2D)                                                            
                                                                 
 flatten (Flatten)           (None, 4096)              0         
                                                                 
 dense (Dense)               (None, 1024)              4195328   
                                                                 
 dense_1 (Dense)             (None, 512)               524800    
                                                                 
 dense_2 (Dense)             (None, 256)               131328    
                                                                 
 dense_3 (Dense)             (None, 128)               32896     
                                                                 
 dense_4 (Dense)             (None, 64)                8256      
                                                                 
 dense_5 (Dense)             (None, 32)                2080      
                                                                 
 dense_6 (Dense)             (None, 16)                528       
                                                                 
 dense_7 (Dense)             (None, 1)                 17        
                                                                 
=================================================================
Total params: 11190913 (42.69 MB)
Trainable params: 11186881 (42.67 MB)
Non-trainable params: 4032 (15.75 KB)
_________________________________________________________________
Training model with 6 convolutional layers
Epoch 1/50
 1/97 [.....................
…
